2021-06-26 12:20:24,213 Namespace(dataDir='dataset', epochs=1000, img_dim=512, logDir='logs', max_lr=3e-05, modelDir='weights', n_class=2, split_ratio=0.8, train_batch=4, vit_blocks=4, vit_dim_linear_mhsa_block=1024, weight_decay=0.0001)
2021-06-26 12:20:24,659 TransUnet(
  (init_conv): Sequential(
    (0): Conv2d(3, 128, kernel_size=(7, 7), stride=(2, 2), padding=(3, 3), bias=False)
    (1): BatchNorm2d(128, eps=1e-05, momentum=0.1, affine=True, track_running_stats=True)
    (2): ReLU(inplace=True)
  )
  (conv1): Bottleneck(
    (downsample): Sequential(
      (0): Conv2d(128, 256, kernel_size=(1, 1), stride=(2, 2), bias=False)
      (1): BatchNorm2d(256, eps=1e-05, momentum=0.1, affine=True, track_running_stats=True)
    )
    (conv1): Conv2d(128, 256, kernel_size=(1, 1), stride=(1, 1), bias=False)
    (bn1): BatchNorm2d(256, eps=1e-05, momentum=0.1, affine=True, track_running_stats=True)
    (conv2): Conv2d(256, 256, kernel_size=(3, 3), stride=(2, 2), padding=(1, 1), bias=False)
    (bn2): BatchNorm2d(256, eps=1e-05, momentum=0.1, affine=True, track_running_stats=True)
    (conv3): Conv2d(256, 256, kernel_size=(1, 1), stride=(1, 1), bias=False)
    (bn3): BatchNorm2d(256, eps=1e-05, momentum=0.1, affine=True, track_running_stats=True)
    (relu): ReLU(inplace=True)
  )
  (conv2): Bottleneck(
    (downsample): Sequential(
      (0): Conv2d(256, 512, kernel_size=(1, 1), stride=(2, 2), bias=False)
      (1): BatchNorm2d(512, eps=1e-05, momentum=0.1, affine=True, track_running_stats=True)
    )
    (conv1): Conv2d(256, 512, kernel_size=(1, 1), stride=(1, 1), bias=False)
    (bn1): BatchNorm2d(512, eps=1e-05, momentum=0.1, affine=True, track_running_stats=True)
    (conv2): Conv2d(512, 512, kernel_size=(3, 3), stride=(2, 2), padding=(1, 1), bias=False)
    (bn2): BatchNorm2d(512, eps=1e-05, momentum=0.1, affine=True, track_running_stats=True)
    (conv3): Conv2d(512, 512, kernel_size=(1, 1), stride=(1, 1), bias=False)
    (bn3): BatchNorm2d(512, eps=1e-05, momentum=0.1, affine=True, track_running_stats=True)
    (relu): ReLU(inplace=True)
  )
  (conv3): Bottleneck(
    (downsample): Sequential(
      (0): Conv2d(512, 1024, kernel_size=(1, 1), stride=(2, 2), bias=False)
      (1): BatchNorm2d(1024, eps=1e-05, momentum=0.1, affine=True, track_running_stats=True)
    )
    (conv1): Conv2d(512, 1024, kernel_size=(1, 1), stride=(1, 1), bias=False)
    (bn1): BatchNorm2d(1024, eps=1e-05, momentum=0.1, affine=True, track_running_stats=True)
    (conv2): Conv2d(1024, 1024, kernel_size=(3, 3), stride=(2, 2), padding=(1, 1), bias=False)
    (bn2): BatchNorm2d(1024, eps=1e-05, momentum=0.1, affine=True, track_running_stats=True)
    (conv3): Conv2d(1024, 1024, kernel_size=(1, 1), stride=(1, 1), bias=False)
    (bn3): BatchNorm2d(1024, eps=1e-05, momentum=0.1, affine=True, track_running_stats=True)
    (relu): ReLU(inplace=True)
  )
  (vit): ViT(
    (project_patches): Linear(in_features=1024, out_features=1024, bias=True)
    (emb_dropout): Dropout(p=0, inplace=False)
    (mlp_head): Linear(in_features=1024, out_features=10, bias=True)
    (transformer): TransformerEncoder(
      (layers): ModuleList(
        (0): TransformerBlock(
          (mhsa): MultiHeadSelfAttention(
            (to_qvk): Linear(in_features=1024, out_features=3072, bias=False)
            (W_0): Linear(in_features=1024, out_features=1024, bias=False)
          )
          (drop): Dropout(p=0, inplace=False)
          (norm_1): LayerNorm((1024,), eps=1e-05, elementwise_affine=True)
          (norm_2): LayerNorm((1024,), eps=1e-05, elementwise_affine=True)
          (linear): Sequential(
            (0): Linear(in_features=1024, out_features=1024, bias=True)
            (1): GELU()
            (2): Dropout(p=0, inplace=False)
            (3): Linear(in_features=1024, out_features=1024, bias=True)
            (4): Dropout(p=0, inplace=False)
          )
        )
        (1): TransformerBlock(
          (mhsa): MultiHeadSelfAttention(
            (to_qvk): Linear(in_features=1024, out_features=3072, bias=False)
            (W_0): Linear(in_features=1024, out_features=1024, bias=False)
          )
          (drop): Dropout(p=0, inplace=False)
          (norm_1): LayerNorm((1024,), eps=1e-05, elementwise_affine=True)
          (norm_2): LayerNorm((1024,), eps=1e-05, elementwise_affine=True)
          (linear): Sequential(
            (0): Linear(in_features=1024, out_features=1024, bias=True)
            (1): GELU()
            (2): Dropout(p=0, inplace=False)
            (3): Linear(in_features=1024, out_features=1024, bias=True)
            (4): Dropout(p=0, inplace=False)
          )
        )
        (2): TransformerBlock(
          (mhsa): MultiHeadSelfAttention(
            (to_qvk): Linear(in_features=1024, out_features=3072, bias=False)
            (W_0): Linear(in_features=1024, out_features=1024, bias=False)
          )
          (drop): Dropout(p=0, inplace=False)
          (norm_1): LayerNorm((1024,), eps=1e-05, elementwise_affine=True)
          (norm_2): LayerNorm((1024,), eps=1e-05, elementwise_affine=True)
          (linear): Sequential(
            (0): Linear(in_features=1024, out_features=1024, bias=True)
            (1): GELU()
            (2): Dropout(p=0, inplace=False)
            (3): Linear(in_features=1024, out_features=1024, bias=True)
            (4): Dropout(p=0, inplace=False)
          )
        )
        (3): TransformerBlock(
          (mhsa): MultiHeadSelfAttention(
            (to_qvk): Linear(in_features=1024, out_features=3072, bias=False)
            (W_0): Linear(in_features=1024, out_features=1024, bias=False)
          )
          (drop): Dropout(p=0, inplace=False)
          (norm_1): LayerNorm((1024,), eps=1e-05, elementwise_affine=True)
          (norm_2): LayerNorm((1024,), eps=1e-05, elementwise_affine=True)
          (linear): Sequential(
            (0): Linear(in_features=1024, out_features=1024, bias=True)
            (1): GELU()
            (2): Dropout(p=0, inplace=False)
            (3): Linear(in_features=1024, out_features=1024, bias=True)
            (4): Dropout(p=0, inplace=False)
          )
        )
      )
    )
  )
  (vit_conv): SignleConv(
    (conv): Sequential(
      (0): Conv2d(1024, 512, kernel_size=(3, 3), stride=(1, 1), padding=(1, 1))
      (1): BatchNorm2d(512, eps=1e-05, momentum=0.1, affine=True, track_running_stats=True)
      (2): ReLU(inplace=True)
    )
  )
  (dec1): Up(
    (up): Upsample(scale_factor=2.0, mode=bilinear)
    (conv): DoubleConv(
      (conv): Sequential(
        (0): SignleConv(
          (conv): Sequential(
            (0): Conv2d(1024, 256, kernel_size=(3, 3), stride=(1, 1), padding=(1, 1))
            (1): BatchNorm2d(256, eps=1e-05, momentum=0.1, affine=True, track_running_stats=True)
            (2): ReLU(inplace=True)
          )
        )
        (1): SignleConv(
          (conv): Sequential(
            (0): Conv2d(256, 256, kernel_size=(3, 3), stride=(1, 1), padding=(1, 1))
            (1): BatchNorm2d(256, eps=1e-05, momentum=0.1, affine=True, track_running_stats=True)
            (2): ReLU(inplace=True)
          )
        )
      )
    )
  )
  (dec2): Up(
    (up): Upsample(scale_factor=2.0, mode=bilinear)
    (conv): DoubleConv(
      (conv): Sequential(
        (0): SignleConv(
          (conv): Sequential(
            (0): Conv2d(512, 128, kernel_size=(3, 3), stride=(1, 1), padding=(1, 1))
            (1): BatchNorm2d(128, eps=1e-05, momentum=0.1, affine=True, track_running_stats=True)
            (2): ReLU(inplace=True)
          )
        )
        (1): SignleConv(
          (conv): Sequential(
            (0): Conv2d(128, 128, kernel_size=(3, 3), stride=(1, 1), padding=(1, 1))
            (1): BatchNorm2d(128, eps=1e-05, momentum=0.1, affine=True, track_running_stats=True)
            (2): ReLU(inplace=True)
          )
        )
      )
    )
  )
  (dec3): Up(
    (up): Upsample(scale_factor=2.0, mode=bilinear)
    (conv): DoubleConv(
      (conv): Sequential(
        (0): SignleConv(
          (conv): Sequential(
            (0): Conv2d(256, 64, kernel_size=(3, 3), stride=(1, 1), padding=(1, 1))
            (1): BatchNorm2d(64, eps=1e-05, momentum=0.1, affine=True, track_running_stats=True)
            (2): ReLU(inplace=True)
          )
        )
        (1): SignleConv(
          (conv): Sequential(
            (0): Conv2d(64, 64, kernel_size=(3, 3), stride=(1, 1), padding=(1, 1))
            (1): BatchNorm2d(64, eps=1e-05, momentum=0.1, affine=True, track_running_stats=True)
            (2): ReLU(inplace=True)
          )
        )
      )
    )
  )
  (dec4): Up(
    (up): Upsample(scale_factor=2.0, mode=bilinear)
    (conv): DoubleConv(
      (conv): Sequential(
        (0): SignleConv(
          (conv): Sequential(
            (0): Conv2d(64, 16, kernel_size=(3, 3), stride=(1, 1), padding=(1, 1))
            (1): BatchNorm2d(16, eps=1e-05, momentum=0.1, affine=True, track_running_stats=True)
            (2): ReLU(inplace=True)
          )
        )
        (1): SignleConv(
          (conv): Sequential(
            (0): Conv2d(16, 16, kernel_size=(3, 3), stride=(1, 1), padding=(1, 1))
            (1): BatchNorm2d(16, eps=1e-05, momentum=0.1, affine=True, track_running_stats=True)
            (2): ReLU(inplace=True)
          )
        )
      )
    )
  )
  (conv1x1): Conv2d(16, 2, kernel_size=(1, 1), stride=(1, 1))
)
2021-06-26 12:20:38,385 
Total Parameters: 62,491,202
----------------------------------------------------------------------------------------------------------------------------------
Total Multiply Adds (For Convolution and Linear Layers only): 129.8125457763672 GFLOPs
----------------------------------------------------------------------------------------------------------------------------------
…
